model/dqn_trading_model.pth (torch, 343980 bytes, 6 tensors)

fc.0.weight f4 [128, 600]
0.41925117 -0.10307331 0.09327258 0.39558825 -0.019923933 0.12127066 0.46587753 -0.06116782
0.14314468 0.4201571 0.13742353 0.14008698 0.39354593 -0.088047996 0.1069197 0.3510794
0.14473872 0.0816217 0.38267398 0.2226275 0.11590555 0.39769456 -0.19936995 0.13181968
0.35295576 0.18748985 0.11836436 0.31471714 -0.19206879 0.097489975 0.27685758 0.17246385
0.14975429 0.24835694 0.0591879 0.14383061 0.23764203 -0.09001331 0.110086344 0.16448909
0.09322185 0.1120924 0.117537186 -0.0898028 0.10216474 0.12817709 -0.06378178 0.13683113
0.079294994 0.027023438 0.09078513 0.106957294 0.05685193 0.14007276 0.105860695 -0.037163194
0.15081593 0.03238495 -0.020882407 0.11073719 0.11929048 0.15915585 0.10475448 0.14403361
-0.06378151 0.08873374 0.21236123 -0.05071359 0.09001817 0.1467525 0.11174473 0.10462908
0.16144747 -0.07402183 0.09480886 0.12635767 -0.021079112 0.120493524 0.13703729 -0.06419498
0.09840634 0.11279876 0.02503463 0.13098003 0.15809979 -0.01443451 0.12825313 0.11571281
0.0024311636 0.08171979 0.1014743 0.012629118 0.11831874 0.15765016 -0.0020048379 0.06329845
0.06725649 -0.16180341 0.102829866 0.12198836 0.10337499 0.08621894 0.11768241 0.18686235
0.11249158 0.17680162 0.044750076 0.13005249 0.12962347 -0.077681944 0.06335601 0.14497986
-0.11890801 0.08266811 0.14350586 -0.16790417 0.070623055 0.118074216 0.025163209 0.122963704
0.10709628 0.07184083 0.12139237 0.1554889 -0.16159311 0.06598718 0.18934128 -0.24028215
0.11037239 0.14312124 0.097382784 0.12538716 0.19421443 -0.08383128 0.10205432 0.16891511
0.023810375 0.12911996 0.1968992 -0.06996626 0.095348164 0.23516364 -0.0057346197 0.0968326
0.22870763 -0.024836827 0.14107782 0.2687934 -0.017051468 0.083455786 0.2964385 -0.03521916
0.14795312 0.22979742 0.03902716 0.122567244 0.29732454 0.047483787 0.11521177 0.20474775
-0.16732438 0.14656812 0.24722731 0.19403215 0.1016318 0.24529381 0.01716612 0.10110175
0.27933106 0.13362363 0.11646042 0.24133547 0.07664642 0.116305545 0.27188054 -0.0028812443
0.13463864 0.26000744 -0.03953962 0.08843945 0.20965157 -0.21774203 0.09583888 0.273768
0.109856 0.14234555 0.27792516 0.07707476 0.11777246 0.29017654 0.07405741 0.1308579
0.29356426 0.2063591 0.11810851 0.33504224 0.05607639 0.13638577 0.3700856 -0.1359961
0.14863542 0.4072543 -0.110639445 0.11033561 0.5038687 0.024868572 0.11923739 0.5045621
0.071148746 0.15406772 0.49397698 0.091240115 0.15033421 0.55481267 0.079163685 0.17158984
0.4963965 -0.039609123 0.15558441 0.51546127 0.09076444 0.18801135 0.51224697 0.0024392155
0.13334353 0.47010127 0.12545641 0.17533675 0.5447977 -0.01864958 0.18353081 0.51005256
0.030242492 0.18004236 0.5665814 0.27712074 0.20711005 0.4962907 -0.019386135 0.16178587
0.5832438 -0.0961442 0.21904604 0.5281046 -0.041152287 0.21231696 0.6077575 0.0051856083
0.24211255 0.56622964 -0.005854799 0.23399499 0.5504765 -0.045034684 0.24333316 0.5200924
00000000: 17a8 d63e 1918 d3bd b205 bf3d 8b8a ca3e
00000010: 8437 a3bc c05c f83d 8087 ee3e 1c8b 7abd
00000020: 8594 123e d51e d73e c1b8 0c3e f672 0f3e
00000030: da7e c93e 8252 b4bd b7f8 da3d aec0 b33e
00000040: 6336 143e 4729 a73d d8ed c33e 77f8 633e
00000050: e45f ed3d 9f9e cb3e a327 4cbe bdfb 063e
00000060: 9eb6 b43e 57fd 3f3e 0369 f23d 9b22 a13e
00000070: aead 44be d3a8 c73d 47c0 8d3e 5d9a 303e
00000080: 3059 193e 4851 7e3e 036f 723d 5548 133e
00000090: 6f58 733e e658 b8bd f374 e13d d46f 283e
000000a0: 19eb be3d b390 e53d 56b7 f03d 88ea b7bd
000000b0: bf3b d13d db40 033e 06a0 82bd 761d 0c3e
000000c0: 6a65 a23d 4260 dd3c 8eed b93d 6d0c db3d
000000d0: 92dd 683d 3c6f 0f3e 7ecd d83d 6f38 18bd
000000e0: 7e6f 1a3e 15a6 043d 9511 abbc 2eca e23d
000000f0: 914e f43d c0f9 223e 8489 d63d 8c7d 133e
00000100: e19f 82bd 09ba b53d 3975 593e 0eb9 4fbd
00000110: 725b b83d 4a46 163e 6cda e43d c547 d63d
00000120: 7c52 253e c298 97bd 262b c23d e863 013e
00000130: 1aae acbc 4fc5 f63d 8153 0c3e a878 83bd
00000140: 4389 c93d 0903 e73d 6d15 cd3c a11f 063e
00000150: e9e4 213e b97e 6cbc ca54 033e d6fa ec3d
00000160: 2854 1f3b b55c a73d c2d1 cf3d 5cea 4e3c
00000170: 1851 f23d 0b6f 213e 9963 03bb 9ea2 813d
00000180: c5bd 893d cbaf 25be 7798 d23d 09d5 f93d
00000190: 44b6 d33d 8e93 b03d 7a03 f13d d858 3f3e
000001a0: fc61 e63d 7c0b 353e db4b 373d 7b2c 053e
000001b0: 04bc 043e b617 9fbd ccc0 813d 9a75 143e
000001c0: 0b86 f3bd e64d a93d 33f3 123e 12ef 2bbe
000001d0: d2a2 903d e5d0 f13d 1323 ce3c 65d4 fb3d
000001e0: 4b55 db3d 4921 933d 909c f83d 7b38 1f3e
000001f0: aa78 25be 4924 873d aee2 413e 860c 76be
00000200: eb0a e23d 608e 123e a070 c73d 7e65 003e
00000210: 26e0 463e bcaf abbd db01 d13d 15f8 2c3e
00000220: fa0d c33c 0638 043e f29f 493e 784a 8fbd
00000230: e645 c33d bdce 703e 7ae9 bbbb 2c50 c63d
00000240: 5532 6a3e 9a76 cbbc b476 103e 4a9f 893e
00000250: 85af 8bbc deea aa3d c9c6 973e f741 10bd
00000260: 0681 173e 0450 6b3e f1da 1f3d 8904 fb3d
00000270: ec3a 983e 5c7e 423d 26f4 eb3d 65a9 513e
00000280: 1557 2bbe f415 163e 2829 7d3e 5db0 463e
00000290: 5524 d03d 4d2e 7b3e f69f 8c3c 6f0e cf3d
000002a0: 7b04 8f3e a2d4 083e cd82 ee3d a520 773e
000002b0: ccf8 9c3d 9a31 ee3d ed33 8b3e 42d3 3cbb
000002c0: b6de 093e b21f 853e 4cf4 21bd be1f b53d
000002d0: e7ae 563e c4f7 5ebe 2d47 c43d 522b 8c3e
000002e0: 2ffc e03d 08c3 113e 354c 8e3e 5fd9 9d3d
000002f0: b032 f13d 0592 943e 69ab 973d 9dff 053e
00000300: 0e4e 963e cd4f 533e e0e2 f13d a88a ab3e
00000310: 5bb0 653d b6a8 0b3e dc7b bd3e 9042 0bbe
00000320: e233 183e a383 d03e ef96 e2bd a3f7 e13d
00000330: 8afd 003f 2db9 cb3c bc32 f43d fb2a 013f
00000340: 6fb6 913d eec3 1d3e 8dea fc3e 19dc ba3d
00000350: 36f1 193e 3408 0e3f 9220 a23d 3fb5 2f3e
00000360: af27 fe3e 2d3d 22bd 8551 1f3e 45f5 033f
00000370: b5e2 b93d 0c86 403e 9e22 033f 3fdb 1f3b
00000380: 358b 083e 1db1 f03e a577 003e 7a8b 333e
00000390: dd77 0b3f 01c7 98bc 80ef 3b3e ce92 023f
000003a0: 1abf f73c 065d 383e 7b0b 113f c5e2 8d3e
000003b0: a814 543e d119 fe3e accf 9ebc 32ab 253e
000003c0: 774f 153f 40e7 c4bd 9b4d 603e dd31 073f
000003d0: 4d8f 28bd 9e69 593e ff95 1b3f 09ec a93b
000003e0: 5aec 773e 6df4 103f 9dd9 bfbb 629c 6f3e
000003f0: 07ec 0c3f 4a76 38bd 542c 793e c724 053f

fc.0.bias f4 [128]
-0.14879727 -0.022829406 -0.4746758 0.18617854 0.013479713 -0.047188576 0.027765118 -0.15444055
0.037742797 -0.013727811 0.024872944 0.021722328 -0.041536205 -0.030023457 -0.5724552 -0.018032532
-0.07574286 -0.033538576 0.008937688 -0.0059753917 0.0144704105 -0.01496275 -0.034921404 -0.30242813
0.8077261 -0.0026844004 0.6201771 0.008832197 -0.017138647 0.0108123245 0.7353241 0.7973488
-0.024181146 -0.012663363 0.021621926 0.006619743 -0.024451151 0.38003802 0.27978754 -0.1734703
0.022590242 0.0014937633 0.03468488 0.0020807232 0.029518152 0.21183614 -0.040713668 0.35067332
0.014826002 -0.9130441 0.004767384 -0.01941118 -0.0026188772 -0.12708384 1.1560745 -0.035547797
-0.0140088275 -0.036573377 0.48907262 -0.015954733 -0.0069590444 0.029988173 0.017853852 -0.027740654
-0.20799081 -0.028283432 -0.04437023 -0.044172864 -0.032511666 -0.02434401 -0.0039322246 -0.037891194
-0.12609385 -0.030266825 0.018694783 -0.004990057 -0.02663095 0.0053629144 -0.011209722 -0.005962816
-0.0053350776 0.38427466 0.006406164 -0.04174246 0.4331324 -0.008768111 -0.013842711 -0.037512027
-0.0030671654 -0.025350247 0.094985954 0.016460057 0.4703961 0.25747257 -0.01961675 -0.52759355
-0.03567338 0.016833635 0.028012943 -0.026810711 0.0009275364 -0.11194271 0.02159496 0.14676149
-0.0944458 -0.2590932 0.01748418 -0.024354815 -0.037634965 -0.07572167 -0.0061479155 0.014591569
-0.017441042 -0.046217144 0.017526943 0.03352687 -0.021666992 1.0999063 0.024008691 0.62149173
0.032410454 -0.026737662 -0.09047189 -0.10732987 -0.17768256 0.019828765 -0.015740314 -0.015989058
00000000: 505e 18be bc04 bbbc b508 f3be 96a5 3e3e
00000010: 04da 5c3c cf48 41bd ac73 e33c aa25 1ebe
00000020: 3198 1a3d 9dea 60bc 58c2 cb3c 06f3 b13c
00000030: de21 2abd c1f3 f5bc 6d8c 12bf f6b8 93bc
00000040: 131f 9bbd bf5f 09bd 616f 123c 38cd c3bb
00000050: 4d15 6d3c 5226 75bc bf09 0fbd dcd7 9abe
00000060: 23c7 4e3f c4ec 2fbb edc3 1e3f ebb4 103c
00000070: 5966 8cbc 2d26 313c 333e 3c3f 0d1f 4c3f
00000080: 8a17 c6bc fe79 4fbc 7720 b13c 6eea d83b
00000090: c84d c8bc 5894 c23e 5040 8f3e 33a2 31be
000000a0: 2c0f b93c 61ca c33a bc11 0e3d be5c 083b
000000b0: 0dd0 f13c 93eb 583e 60c3 26bd 748b b33e
000000c0: c2e8 723c 42bd 69bf b737 9c3b 3204 9fbc
000000d0: 78a1 2bbb 4422 02be 40fa 933f 919a 11bd
000000e0: 4885 65bc f7cd 15bd ba67 fa3e 80b3 82bc
000000f0: b208 e4bb c2a9 f53c 3e42 923c 5e40 e3bc
00000100: 8bfb 54be a8b2 e7bc 8fbd 35bd 9bee 34bd
00000110: f42a 05bd 176d c7bc e4d9 80bb cc33 1bbd
00000120: bf1e 01be 22f2 f7bc cd25 993c a283 a3bb
00000130: 2629 dabc 63bb af3b fba8 37bc ba63 c3bb
00000140: e0d1 aebb a6bf c43e ccea d13b 24fa 2abd
00000150: 88c3 dd3e 1fa8 0fbc 8acc 62bc 36a6 19bd
00000160: 7f02 49bb 52ab cfbc ff87 c23d 3ed7 863c
00000170: c2d7 f03e 72d3 833e 4eb3 a0bc 5f10 07bf
00000180: 401e 12bd b1e6 893c 667b e53c 23a2 dbbc
00000190: ea25 733a 3842 e5bd eae7 b03c a548 163e
000001a0: cd6c c1bd dda7 84be fc3a 8f3c c083 c7bc
000001b0: 1f27 1abd f713 9bbd 7474 c9bb 7a11 6f3c
000001c0: 84e0 8ebc 304e 3dbd aa94 8f3c 7953 093d
000001d0: fa7e b1bc bbc9 8c3f e0ad c43c 151a 1f3f
000001e0: d3c0 043d f108 dbbc 5449 b9bd c3cf dbbd
000001f0: 6bf2 35be ef6f a23c d5f1 80bc 7cfb 82bc

fc.2.weight f4 [64, 128]
0.15109222 0.033516653 -0.030747324 -0.029519526 -0.01814861 -0.076803684 -0.009860026 -0.041724894
-0.06763521 -0.025518287 0.014179587 -0.047937278 0.06992128 0.019283354 0.109896734 -0.020960236
-0.008529961 -0.09213793 0.04954381 -0.06706908 -0.045359608 -0.0037993798 0.03451702 0.13509251
-0.032232977 0.08892777 -0.13483256 -0.058609925 0.017799078 -0.0303627 -0.54195374 -0.01432881
-0.06622055 -0.08309028 -0.050883196 -0.028993927 0.02996269 0.15142931 -0.14276199 -0.1815297
0.0660846 0.0030282522 0.004209783 0.011410891 -0.054248698 -0.29511803 -0.00448618 -0.194422
0.08222269 0.08352207 -0.030105164 0.045439273 0.07165962 0.06111481 -0.31978348 -0.006774393
0.06558249 -0.022385603 0.18623617 -0.024166197 0.071794234 -0.0040453705 0.029981552 0.011665976
0.070132844 -0.07999979 0.041568246 0.062436458 0.040872287 0.02370498 -0.08769084 0.050070953
-0.010099297 0.093380414 -0.034157757 -0.050779063 -0.030782081 0.08025211 -0.036088727 -0.08990837
-0.016568244 -0.22669958 -0.034480304 -0.04679403 -0.06789553 -0.028455263 -0.07230487 0.06368366
-0.004834116 0.06872556 0.11359034 -0.080669224 -0.11546156 -0.82027256 -0.011743672 -0.0992368
0.065017365 -0.04954086 -0.021531269 0.05791626 0.035333972 -0.0628777 0.024313798 -0.21061845
-0.0819217 -0.02471689 0.058687538 -0.06417541 0.025325757 0.0404562 0.04876657 -0.012288599
-0.06734578 0.063740976 0.0058685453 -0.04396514 0.050308067 -0.7364884 -0.0067300424 -0.05014458
-7.6752236e-05 -0.053688258 0.088556916 -0.121604756 -0.30143318 0.047382053 -0.07329176 -0.09699789
0.17380343 0.05067091 0.011432848 -0.29376057 -0.04156962 -0.058063492 0.023611695 -0.21923324
0.020318411 -0.050782505 0.065843016 0.016666131 -0.028871054 -0.019928595 0.018245643 0.04200848
0.012510162 0.032316126 -0.08845487 0.058907364 0.047063403 0.04510313 0.0078368075 -0.11121159
-0.010534702 -0.05660641 -0.059171207 0.020812577 0.0041960827 0.034433033 -0.28830305 -0.25536314
-0.029978873 -0.00021763665 0.041237295 0.0052187317 -0.060315527 0.048721008 0.025839616 -0.007497054
0.01445627 0.06176955 -0.059286356 -0.06564952 -0.06509133 0.049922004 -0.00019150037 -0.14624014
0.06343555 -0.2039305 0.05078466 0.01015726 0.029311536 -0.3179106 0.009762734 0.05745358
0.009952015 0.080918774 -0.019047448 0.056564566 0.049733043 0.093308404 0.02101965 -0.053509027
-0.16819713 -0.018035576 -0.07184826 -0.06950301 -0.063474804 -0.08602659 0.0007029146 -0.0008569184
-0.012390143 0.039432716 0.04207524 0.058277253 -0.00778074 -0.03447966 0.04706962 0.07908326
0.025688607 -0.29649198 -0.06803828 0.059022922 0.07810141 -0.030064203 -0.03080117 -0.035634246
-0.03888146 0.057500843 0.098525256 -0.07734881 -0.5127379 -0.07236934 0.057041485 0.07013301
-0.07829412 -0.03793327 -0.002485138 -0.035820212 0.05446313 0.12733722 0.044008348 -0.077950664
-0.35614488 0.022387939 0.07320051 -0.00546174 0.012496075 -0.20017006 0.0060193813 0.0772197
-0.018097386 0.0139453765 -0.031542826 -0.04570494 -0.037052043 -0.19742629 0.014954217 -0.0066191717
0.068957426 -0.033299908 0.009422839 -0.21854721 0.060599864 -0.047425292 -0.02563052 0.06618368
00000000: ebb7 1a3e c248 093d d0e1 fbbc efd2 f1bc
00000010: 65ac 94bc 404b 9dbd f28b 21bc b9e7 2abd
00000020: 5484 8abd ba0b d1bc 8051 683c e159 44bd
00000030: e332 8f3d 20f8 9d3c 8a11 e13d cdb4 abbc
00000040: 40c1 0bbc d0b2 bcbd 73ee 4a3d 845b 89bd
00000050: ffca 39bd 04ff 78bb b861 0d3d b155 0a3e
00000060: ba06 04bd c31f b63d 8c11 0abe f610 70bd
00000070: 5fcf 913c 32bb f8bc 7bbd 0abf 63c3 6abc
00000080: a49e 87bd 3d2b aabd e66a 50bd ac84 edbc
00000090: 5174 f53c 4910 1b3e 3330 12be ece2 39be
000000a0: 5d57 873d a475 463b 38f2 893b bff4 3a3c
000000b0: e233 5ebd b619 97be ce00 93bb 9016 47be
000000c0: 5f64 a83d 9e0d ab3d 1b9f f6bc 881e 3a3d
000000d0: 47c2 923d 8653 7a3d a9ba a3be bafb ddbb
000000e0: 1d50 863d 0362 b7bc b2b4 3e3e 30f8 c5bc
000000f0: db08 933d 078f 84bb df9b f53c a622 3f3c
00000100: cfa1 8f3d eed6 a3bd 7743 2a3d 5fbd 7f3d
00000110: b369 273d f230 c23c 4197 b3bd 3317 4d3d
00000120: 8677 25bc 3b3e bf3d 01e9 0bbd b5fd 4fbd
00000130: b42a fcbc 385b a43d c6d1 13bd e121 b8bd
00000140: 20ba 87bc ef23 68be 383b 0dbd 19ab 3fbd
00000150: d00c 8bbd 031b e9bc 9314 94bd 946c 823d
00000160: 8167 9ebb fdbf 8c3d 0da2 e83d e835 a5bd
00000170: 1c77 ecbd 62fd 51bf 8868 40bc aa3c cbbd
00000180: d327 853d 5beb 4abd 5862 b0bc 9a39 6d3d
00000190: 5bba 103d 06c6 80bd bb2d c73c 5dac 57be
000001a0: 90c6 a7bd 137b cabc 5862 703d 666e 83bd
000001b0: f677 cf3c 66b5 253d 74bf 473d 1f56 49bc
000001c0: 96ec 89bd a18a 823d ed4c c03b ca14 34bd
000001d0: d50f 4e3d 818a 3cbf b087 dcbb 6764 4dbd
000001e0: 0bf6 a0b8 38e8 5bbd 545d b53d ea0b f9bd
000001f0: 7355 9abe af13 423d fe19 96bd d4a6 c6bd
00000200: 87f9 313e 4d8c 4f3d d750 3b3c c967 96be
00000210: e844 2abd fcd3 6dbd 506d c13c ae7e 60be
00000220: cc72 a63c 5101 50bd b4d8 863d 6987 883c
00000230: fd82 ecbc 4b41 a3bc e377 953c 1511 2c3d
00000240: 6cf7 4c3c ea5d 043d d427 b5bd d948 713d
00000250: 8ec5 403d 0fbe 383d f465 003c e7c2 e3bd
00000260: be99 2cbc 1fdc 67bd 825d 72bd 237f aa3c
00000270: 4b7f 893b a709 0d3d 759c 93be f5be 82be
00000280: 4196 f5bc 6535 64b9 70e8 283d e501 ab3b
00000290: 6a0d 77bd ae8f 473d 9aad d33c d9a9 f5bb
000002a0: fed9 6c3c 1102 7d3d 40d6 72bd 4173 86bd
000002b0: 9a4e 85bd 047b 4c3d 7dcd 48b9 fabf 15be
000002c0: 7fea 813d 28d3 50be 9303 503d a36a 263c
000002d0: bf1e f03c 2ec5 a2be e0f3 1f3c 7254 6b3d
000002e0: c70d 233c beb8 a53d 6509 9cbc 3fb0 673d
000002f0: e0b4 4b3d 7a18 bf3d 6731 ac3c 482c 5bbd
00000300: de3b 2cbe 58bf 93bc 2e25 93bd 9857 8ebd
00000310: 14ff 81bd b52e b0bd cd43 383a d2a2 60ba
00000320: 0700 4bbc 3384 213d 1657 2c3d 21b4 6e3d
00000330: 94f5 febb 8b3a 0dbd 13cc 403d 67f6 a13d
00000340: ea70 d23c cccd 97be a757 8bbd 05c2 713d
00000350: a2f3 9f3d 3449 f6bc bc52 fcbc 37f5 11bd
00000360: 2a42 1fbd 0186 6b3d 9cc7 c93d 0e69 9ebd
00000370: ca42 03bf 6036 94bd 55a4 693d e5a1 8f3d
00000380: ab58 a0bd eb5f 1bbd b2dd 22bb 37b8 12bd
00000390: bb14 5f3d b064 023e 1942 343d 99a4 9fbd
000003a0: 9f58 b6be e966 b73c 26ea 953d 65f8 b2bb
000003b0: 56bc 4c3c 61f9 4cbe 3b3e c53b 5d25 9e3d
000003c0: f840 94bc 267b 643c 0d33 01bd 1a35 3bbd
000003d0: e2c3 17bd 1e2a 4abe 8802 753c a3e5 d8bb
000003e0: 8d39 8d3d 7c65 08bd 4062 1a3c d7ca 5fbe
000003f0: 9037 783d 0641 42bd 19f7 d1bc 4f8b 873d

fc.2.bias f4 [64]
0.29878587 0.0076059047 0.18625776 1.2538608 0.38387296 0.8633072 0.05966309 1.2084343
1.1346039 -0.13308048 0.09676348 0.75772667 0.721931 0.77800304 0.91443056 -0.045381404
-0.07909042 -0.2691304 -0.1412094 1.3558074 -0.021683965 0.4847853 -0.030301416 -0.15790752
-0.0008761781 -0.3451065 0.8442544 -0.48012078 0.8339521 -0.09429883 0.4908623 0.66785604
0.060940914 1.2853464 -0.50574905 -0.14844716 -0.09651293 1.1835033 0.2006683 1.2708497
0.2553016 -0.434609 -0.08218217 0.54973346 -0.0009862701 -0.19275789 -0.14281419 -0.09734009
-0.084795386 0.47395116 1.0813584 0.72354215 1.125979 0.115047336 0.16445605 0.13184243
-0.12714371 0.21799037 -0.05429149 -0.018694125 -0.030163245 0.6427691 0.9833356 1.3442022
00000000: 76fa 983e f43a f93b 5bba 3e3e 837e a03f
00000010: ff8a c43e b301 5d3f 4961 743d faad 9a3f
00000020: b33a 913f 4046 08be ee2b c63d 60fa 413f
00000030: 78d0 383f 352b 473f 1f18 6a3f dae1 39bd
00000040: 28fa a1bd 76cb 89be 3299 10be 198b ad3f
00000050: 92a2 b1bc c735 f83e ad3a f8bc 82b2 21be
00000060: 51af 65ba cdb1 b0be 0e21 583f 64d2 f5be
00000070: e37d 553f bf1f c1bd 4e52 fb3e 9df8 2a3f
00000080: 2e9d 793d 3b86 a43f c578 01bf 8802 18be
00000090: 92a8 c5bd 097d 973f fe7b 4d3e 34ab a23f
000000a0: e4b6 823e 1285 debe 204f a8bd 55bb 0c3f
000000b0: bc45 81ba 5362 45be e23d 12be 3e5a c7bd
000000c0: 34a9 adbd baa9 f23e f469 8a3f 0f3a 393f
000000d0: 1420 903f f09d eb3d 2b67 283e b401 073e
000000e0: f631 02be de38 5f3e c160 5ebd 6c24 99bc
000000f0: e918 f7bc 848c 243f e2bb 7b3f d10e ac3f

fc.4.weight f4 [2, 64]
-0.020697642 -0.05010069 0.014009157 -0.014302434 0.02272038 -0.020741517 0.019563302 -0.028687155
0.021335775 -0.027353661 0.016702764 0.01872038 -0.020868165 -0.012875764 0.011682582 0.021240152
0.035411667 -0.033276755 -0.05030441 0.02023889 0.07916043 0.024548749 -0.014479796 -0.008361126
0.009054011 -0.025506182 -0.021070952 -0.019466732 0.029177103 0.0498128 -0.023045115 0.011192209
-0.027365232 0.017795281 -0.025500486 -0.024951229 0.017241184 0.01807621 0.025215985 -0.022869803
0.0022491508 -0.009563847 -0.018821433 0.018825382 -0.048930675 -0.029304527 0.0030497364 -0.09188526
0.006063862 -0.022428919 -0.021348706 0.020509107 0.033507902 0.0448925 0.053632002 0.020077914
-0.011992783 -0.018367836 0.026804099 0.029821843 -0.034492716 0.014533285 -0.010449267 -0.023632765
-0.021352893 -0.05652423 0.01345811 -0.014897335 0.031063883 -0.015800249 -0.060066573 -0.018456835
0.021665085 0.06696004 0.017784405 0.020177675 -0.019665308 -0.0140468255 0.013580599 -0.10079766
0.027423836 -0.027646406 -0.035821743 0.022384077 0.01281185 0.026110422 -0.027701577 -0.014406787
0.008841879 -0.02373386 -0.015672425 -0.021417633 0.023838332 -0.038950834 -0.022875212 0.012703329
-0.025712244 0.017833358 -0.026123557 0.03966739 0.017917966 0.019720104 0.028416963 -0.027979804
-0.00074549497 -0.011209661 -0.018038668 0.017003492 0.007991049 -0.026006049 -0.0052822363 -0.01164043
-0.0017871637 -0.02310277 -0.019779066 0.019760843 0.042429384 0.056270506 0.05308972 0.020159831
0.026204795 -0.018820422 -0.077734105 0.026020385 -0.042452622 0.016321696 -0.011619964 -0.024173098
00000000: 1a8e a9bc 6236 4dbd aa86 653c c254 6abc
00000010: 1720 ba3c 1dea a9bc 3843 a03c 5301 ebbc
00000020: 5dc8 ae3c c914 e0bc 3cd4 883c 7b5b 993c
00000030: b7f3 aabc def4 52bc 4d68 3f3c d4ff ad3c
00000040: d30b 113d 354d 08bd ff0b 4ebd 07cc a53c
00000050: dd1e a23d 751a c93c ab3c 6dbc 1bfd 08bc
00000060: 4657 143c 57f2 d0bc fd9c acbc b278 9fbc
00000070: d204 ef3c 8208 4c3d 1cc9 bcbc 875f 373c
00000080: 0d2d e0bc 69c7 913c 65e6 d0bc 8566 ccbc
00000090: 623d 8d3c 8f14 943c c191 ce3c 7459 bbbc
000000a0: 7d66 133b afb1 1cbc 682f 9abc b037 9a3c
000000b0: 886b 48bd 0c10 f0bc 16de 473b 572e bcbd
000000c0: 5cb3 c63b dabc b7bc 7be3 aebc b702 a83c
000000d0: 953f 093d 33e1 373d 3bad 5b3d 707a a43c
000000e0: 617d 44bc 2578 96bc 4594 db3c f04c f43c
000000f0: 3c48 0dbd 041d 6e3c 6733 2bbc 8099 c1bc
00000100: 43ec aebc f385 67bd 687f 5c3c f413 74bc
00000110: af79 fe3c 866f 81bc 5e08 76bd ca32 97bc
00000120: fa7a b13c 5822 893d 9ab0 913c a74b a53c
00000130: 2419 a1bc a824 66bc 2981 5e3c 016f cebd
00000140: f4a7 e03c b77a e2bc d2b9 12bd d05e b73c
00000150: cbe8 513c 86e5 d53c 6bee e2bc 720a 6cbc
00000160: 87dd 103c 836d c2bc 7563 80bc 0874 afbc
00000170: 9b48 c33c e98a 1fbd cc64 bbbc a021 503c
00000180: 7ca2 d2bc 4317 923c 1201 d6bc 467a 223d
00000190: b3c8 923c 0e8c a13c b1ca e83c e735 e5bc
000001a0: 526d 43ba baa8 37bc d4c5 93bc e84a 8b3c
000001b0: e4ec 023c a30a d5bc 9c16 adbb 81b7 3ebc
000001c0: 433f eaba 0542 bdbc b507 a2bc 7ee1 a13c
000001d0: 6fca 2d3d e77b 663d 9b74 593d 3b26 a53c
000001e0: 70ab d63c 492d 9abc 0f33 9fbd b428 d53c
000001f0: cde2 2dbd 14b5 853c a961 3ebc a906 c6bc

fc.4.bias f4 [2]
0.40211803 0.14959165
00000000: 6ae2 cd3e 8e2e 193e
