model/dqn_trading_model_overfit.pth (torch, 344044 bytes, 6 tensors)

fc.0.weight f4 [128, 600]
0	0xbedefd8a	-0.4355281
1	0xbd58f639	-0.05296919
2	0xbeedf333	-0.4647461
3	0xbee052c8	-0.43813157
4	0xbd52c558	-0.051457733
5	0xbee17359	-0.44033316
6	0xbec634ed	-0.38712254
7	0x3dad4265	0.084599294
8	0xbee4b3df	-0.4466848
9	0xbed44f91	-0.41466954
10	0x3ce03c3f	0.027372478
11	0xbed17468	-0.40909123
12	0xbee161a2	-0.440198
13	0xbd9c05ea	-0.076183155
14	0xbedbfa42	-0.4296437
15	0xbedec20e	-0.43507427
16	0x3cb42061	0.021988096
17	0xbed0c1d6	-0.40772885
18	0xbee4353e	-0.4457187
19	0x3bd79b78	0.0065798126
20	0xbedb4413	-0.42825374
21	0xbec0aac2	-0.37630278
22	0xbcf9ad1d	-0.030478055
23	0xbedb5078	-0.4283483
24	0xbee4e136	-0.44703072
25	0xbd1c2973	-0.038125467
26	0xbedcfb9b	-0.4316071
27	0xbecd7fe6	-0.4013664
28	0xbb63f2e3	-0.0034782223
29	0xbef0edbb	-0.47056374
30	0xbed0248f	-0.40652892
31	0x3d5fa370	0.054599226
32	0xbef25231	-0.47328332
33	0xbede951c	-0.43473136
34	0xbd3958eb	-0.045250814
35	0xbedf7de6	-0.4365074
36	0xbecee9b3	-0.40412673
37	0x3d43cf5a	0.047805168
38	0xbef47d61	-0.47751907
39	0xbec79a49	-0.38984898
40	0xbe00dbd9	-0.12583865
41	0xbecf6de0	-0.40513515
42	0xbecaa870	-0.39581633
43	0x3d4d3de3	0.050107848
44	0xbedc9300	-0.43080902
45	0xbed1808d	-0.4091839
46	0x3de7eaf9	0.11324114
47	0xbecc4c8e	-0.39902157
48	0xbec0088e	-0.37506527
49	0xbd7f2add	-0.062296737
50	0xbeee4183	-0.46534356
51	0xbec0d68f	-0.37663695
52	0xbd2aa38b	-0.041659873
53	0xbee68302	-0.45021826
54	0xbedb628e	-0.4284863
55	0xbb5a2f50	-0.003329236
56	0xbef01ba7	-0.46896097
57	0xbed77f75	-0.4208943
58	0xbd180495	-0.037113745
59	0xbee08f2e	-0.43859237
60	0xbec08a8f	-0.37605712
61	0x3dc20531	0.094736464
62	0xbed3db66	-0.41378325
63	0xbed3bd68	-0.41355443
64	0x3db8bdc3	0.09020569
65	0xbeeb4975	-0.4595448
66	0xbec59da2	-0.38596827
67	0xbd846e29	-0.06466324
68	0xbee0eb90	-0.4392972
69	0xbed7143d	-0.42007628
70	0xbcaefa63	-0.021359628
71	0xbece8642	-0.40336806
72	0xbed52fe8	-0.41638112
73	0xbd1a5a6d	-0.037683893
74	0xbec9206b	-0.39282545
75	0xbeddc7f4	-0.43316615
76	0xbdb17716	-0.08665292
77	0xbedabbb3	-0.42721328
78	0xbeb8ffe5	-0.36132732
79	0xbde339fc	-0.11095044
80	0xbee809d2	-0.45319992
81	0xbeb9ee9f	-0.36314866
82	0xbd147772	-0.036246724
83	0xbef1fb87	-0.47262213
84	0xbecde19d	-0.40211192
85	0x3c8876bd	0.016658181
86	0xbecb944d	-0.39761582
87	0xbece0fb4	-0.40246356
88	0xbd7a38e7	-0.061089423
89	0xbeed228b	-0.46315417
90	0xbeba7b29	-0.3642209
91	0xbcad876e	-0.021182742
92	0xbeea3179	-0.4574087
93	0xbed780f5	-0.42090574
94	0x3c179827	0.009252585
95	0xbede0b6c	-0.4336809
96	0xbedce365	-0.43142238
97	0xbd9a246b	-0.075264774
98	0xbed50676	-0.41606492
99	0xbedac627	-0.42729303
100	0xbc5cbf64	-0.013473365
101	0xbed7907d	-0.42102423
102	0xbecec6dc	-0.40386093
103	0x3cba7334	0.022760011
104	0xbeef55d3	-0.46745166
105	0xbebfe283	-0.37477502
106	0x3e2eec86	0.17082414
107	0xbed2d005	-0.4117433
108	0xbede1eba	-0.43382818
109	0x3d620fc8	0.05519083
110	0xbeee8e35	-0.4659287
111	0xbedf2fbb	-0.43591103
112	0xbd3cd5d5	-0.046102364
113	0xbee06d25	-0.4383327
114	0xbed4215d	-0.41431704
115	0xbb5c1e9c	-0.003358758
116	0xbec9cffc	-0.39416492
117	0xbed03b17	-0.40670082
118	0xbd0b2cab	-0.033978146
119	0xbeeac307	-0.4585192
120	0xbec7978f	-0.38982818
121	0xbd70b230	-0.058763683
122	0xbed4536e	-0.41469902
123	0xbeb829d5	-0.35969415
124	0xbc2cc056	-0.010543903
125	0xbedfd502	-0.437172
126	0xbed926af	-0.42412326
127	0x3d1d6e18	0.03843507
128	0xbecb3f49	-0.3969672
129	0xbee06f80	-0.43835068
130	0xbc338c1e	-0.0109586995
131	0xbeea1c0e	-0.4572453
132	0xbedf153f	-0.43570897
133	0xbd0f20f7	-0.034943547
134	0xbee6c9e7	-0.45075914
135	0xbec28741	-0.37993816
136	0xbd19d84a	-0.037559785
137	0xbecc523c	-0.3990649
138	0xbed9e861	-0.42560104
139	0x3d0e2377	0.03470179
140	0xbed48aff	-0.41512296
141	0xbecd2db5	-0.40073934
142	0xbcfc1d87	-0.030775798
143	0xbeea0ec6	-0.45714396
144	0xbedbfd7a	-0.42966825
145	0x3b0f7100	0.0021887422
146	0xbeced05f	-0.4039335
147	0xbeda411c	-0.426278
148	0x3dc30abf	0.09523534
149	0xbee091ec	-0.4386133
150	0xbed6b502	-0.41934973
151	0x3d34dd9c	0.044156656
152	0xbecda06f	-0.40161464
153	0xbec2d3b7	-0.3805215
154	0x3e16976b	0.14706199
155	0xbeca35b7	-0.39494106
156	0xbed54f18	-0.41661906
157	0xbc279177	-0.010227553
158	0xbed58f8c	-0.4171108
159	0xbed52687	-0.41630957
160	0xbdb316a9	-0.087445565
161	0xbecf43cd	-0.40481415
162	0xbedc86c4	-0.43071568
163	0xbc8ce118	-0.017197177
164	0xbecbbd24	-0.3979274
165	0xbec6141d	-0.3868722
166	0xbcb90152	-0.022583637
167	0xbec67feb	-0.3876947
168	0xbecf157f	-0.40446088
169	0xbd422581	-0.047399048
170	0xbeddca34	-0.4331833
171	0xbec3d649	-0.38249424
172	0x3d11fc66	0.035641097
173	0xbee3d58c	-0.4449886
174	0xbec10030	-0.37695456
175	0xbba27515	-0.004957805
176	0xbec9cb27	-0.39412805
177	0xbec496b8	-0.3839624
178	0xbdda44cf	-0.106576554
179	0xbeef102d	-0.4669203
180	0xbecfb04e	-0.40564197
181	0xbe023f29	-0.12719406
182	0xbee5ff5e	-0.44921392
183	0xbeb6df37	-0.35717174
184	0x3c84a165	0.01619024
185	0xbed07c42	-0.407198
186	0xbeb9098b	-0.36140093
187	0xbda12681	-0.07868672
188	0xbedb2829	-0.42804077
189	0xbed32bf0	-0.4124446
190	0x3bc37640	0.0059650242
191	0xbee2eb09	-0.44319943
192	0xbebff2c1	-0.37489894
193	0x3c226638	0.009912066
194	0xbed5f0d5	-0.41785303
195	0xbebb57b4	-0.3659035
196	0x3d91f083	0.07125952
197	0xbeedfc39	-0.46481493
198	0xbebe037a	-0.37112027
199	0xbd519c99	-0.051174734
200	0xbed54892	-0.4165693
201	0xbed2cd04	-0.4117204
202	0xbc928eb2	-0.017890308
203	0xbeee91b4	-0.46595538
204	0xbebeb5af	-0.3724799
205	0xbdba3228	-0.09091598
206	0xbee7c111	-0.45264485
207	0xbebbf299	-0.36708525
208	0xbd9e87cb	-0.07740744
209	0xbed15959	-0.4088848
210	0xbed03ac3	-0.40669832
211	0xbd1a8a85	-0.03772976
212	0xbecec584	-0.40385067
213	0xbec8947f	-0.39175794
214	0xbb1ab562	-0.0023606648
215	0xbee33741	-0.44378093
216	0xbec7694d	-0.38947526
217	0x3b9dd430	0.0048165545
218	0xbed7e5a6	-0.42167395
219	0xbecad635	-0.39616552
220	0xbd021c06	-0.031765006
221	0xbeeb1641	-0.45915416
222	0xbeca7a37	-0.39546368
223	0xbd9dbcdc	-0.07702038
224	0xbee65705	-0.44988266
225	0xbed29167	-0.41126558
226	0xbd8fcbb4	-0.07021275
227	0xbed33976	-0.41254777
228	0xbec577fd	-0.38568106
229	0xbd95e5eb	-0.07319244
230	0xbee9c74c	-0.45659864
231	0xbed0d1af	-0.40784976
232	0xbd8cef11	-0.06881536
233	0xbeda5674	-0.42644083
234	0xbebf013e	-0.37305635
235	0xbe12a0bc	-0.14319128
236	0xbee8dee2	-0.45482546
237	0xbed0af9f	-0.40758988
238	0x3cee5d36	0.02909718
239	0xbee36cc4	-0.4441892
240	0xbebe0443	-0.37112626
241	0xbd397418	-0.04527673
242	0xbed06af5	-0.40706602
243	0xbed2b2ab	-0.41151938
244	0xbc5b9f5c	-0.013404693
245	0xbee596e9	-0.44841698
246	0xbece3754	-0.40276587
247	0xbcdedbd1	-0.027204426
248	0xbed1fd37	-0.410135
249	0xbee5d255	-0.44887033
250	0xbcd239da	-0.025662351
251	0xbec7177e	-0.3888511
252	0xbee7b3cb	-0.4525436
253	0xbdfebd74	-0.12438479
254	0xbec8e546	-0.39237422
255	0xbed79f96	-0.42113942

fc.0.bias f4 [128]
0	0xbe380c9a	-0.17973557
1	0xbea7bdc9	-0.32761982
2	0x3c0b1ea8	0.008491196
3	0xbce92180	-0.028458357
4	0xbcbc77c4	-0.023006327
5	0x3e45b3ff	0.19306944
6	0x3a951bca	0.001137608
7	0xbbc567b3	-0.006024325
8	0xbb3fdf4a	-0.0029277378
9	0x3c758e04	0.014987472
10	0x3d0afb65	0.033931155
11	0xbd4bcbfd	-0.049755085
12	0x3c411a4c	0.011786055
13	0x3bdf4785	0.0068139457
14	0xbbd8c132	-0.0066148276
15	0xbc878755	-0.016544024
16	0xbcebb87f	-0.028774498
17	0x3bd75c01	0.006572247
18	0xbc7624b2	-0.015023397
19	0xbbfabc87	-0.0076518687
20	0x3c139297	0.009007118
21	0x3b09d68e	0.0021032426
22	0xbcb65bb7	-0.02226053
23	0xbcc5ee53	-0.024161493
24	0xc10c4a60	-8.768158
25	0xbce8e18a	-0.028427858
26	0x3cda9a48	0.026684895
27	0xbcc52f2a	-0.024070341
28	0x41a12f3c	20.148064
29	0xbca342d4	-0.019929327
30	0x3c61ff15	0.013793726
31	0xbcdfe060	-0.02732867
32	0x3cfaad1c	0.030600123
33	0xbd1ceb0c	-0.038310096
34	0xbd650ec6	-0.055922292
35	0x39ee2c0c	0.00045427715
36	0xbf74b624	-0.95590425
37	0x3cfe06d4	0.031009115
38	0xbc88af35	-0.016685108
39	0x3f17985c	0.59216857
40	0xbd929e91	-0.071591504
41	0x3bf4fba4	0.007476287
42	0xbd1a28ef	-0.037636694
43	0xbb09f305	-0.0021049392
44	0x3c992e4c	0.018698834
45	0xbdada7eb	-0.084792934
46	0x3cc9d5c8	0.024638072
47	0x3cbe4357	0.02322547
48	0x3cf0d407	0.029397978
49	0x395c6d60	0.0002102158
50	0x3cf0466c	0.029330455
51	0x3b8eb24e	0.0043547517
52	0xbde5ff6b	-0.11230358
53	0xbe95fcce	-0.29294437
54	0xbe3ba22f	-0.18323587
55	0xbc8dd04c	-0.017311238
56	0xbd073b99	-0.03301582
57	0x3ca489ba	0.020085204
58	0xb824f166	-3.9325467e-05
59	0x3cbc3363	0.022973722
60	0x3c8b3a68	0.016995624
61	0xbb7d135e	-0.003861628
62	0x3ed3ac0e	0.41342205
63	0xbb8ada5f	-0.0042374576
64	0xbc817b8d	-0.015805984
65	0x3e121ad1	0.14268042
66	0xbd8f2ece	-0.06991349
67	0x3bd00482	0.0063481936
68	0xbba2cc78	-0.004968222
69	0xbcaa5b55	-0.020795504
70	0x3e1e9616	0.1548694
71	0x3e352354	0.17689258
72	0x3c9fd3ad	0.019510115
73	0xbc3669eb	-0.011133651
74	0x3c97878b	0.01849725
75	0xbcef1453	-0.029184496
76	0xbe44d243	-0.19220833
77	0xbc75b6ff	-0.014997243
78	0xbb8a100e	-0.0042133396
79	0xbd1ce6d2	-0.038306065
80	0x3b2f66a2	0.0026764055
81	0xbd99b3fc	-0.075050324
82	0xbc3ef901	-0.011656047
83	0x3bff7da0	0.007796958
84	0xbb6550dd	-0.0034990825
85	0x3cd9bac6	0.026578318
86	0xbd2b1d63	-0.041776072
87	0x3c815534	0.015787698
88	0xbcda87ae	-0.026676025
89	0x3ce37e97	0.027770324
90	0xbc5a32bb	-0.013317759
91	0x3cb0df8e	0.021590974
92	0xbc2aacff	-0.010417222
93	0xbc3664fe	-0.011132477
94	0xbca4c43a	-0.0201131
95	0x3d80cc4b	0.06288966
96	0x3d48cf72	0.04902596
97	0x3e522da3	0.20525222
98	0x3ea56cc6	0.3230955
99	0x3d14258f	0.03616863
100	0x3a9fcaae	0.001219114
101	0x3c531806	0.012884146
102	0x3f353b36	0.70793474
103	0x3c2efb8e	0.0106800925
104	0xbca950de	-0.020668443
105	0xbd1ded9f	-0.03855669
106	0x3e057562	0.13033059
107	0x3d6993ec	0.057025835
108	0xbdf900c7	-0.121583514
109	0x3f103f14	0.5634625
110	0xbee5b185	-0.44862
111	0x3de3dd20	0.111261606
112	0xbe2b5b89	-0.16734137
113	0xbced07d3	-0.028934395
114	0xb9b17441	-0.00033846687
115	0x3c2a6c84	0.010401849
116	0xbbbe2643	-0.005802901
117	0xbd117aa1	-0.03551734
118	0xbc060292	-0.008179324
119	0xbd0fa3b7	-0.03506824
120	0x3cbcdcd2	0.023054514
121	0xbcf59065	-0.02997608
122	0xbd025339	-0.03181765
123	0xbb69f208	-0.003569724
124	0x3dca4b55	0.0987765
125	0xbeaec1e3	-0.341323
126	0xbc1d1e91	-0.009589807
127	0x3c049845	0.0080929445

fc.2.weight f4 [64, 128]
0	0xbd52f32a	-0.05150143
1	0xbd8ae2cc	-0.06781539
2	0x3db59e0f	0.08868038
3	0xbcb2b8db	-0.021816662
4	0xbd5c3e65	-0.05377044
5	0xbd4866df	-0.04892623
6	0x3d811c71	0.06304253
7	0x3dae69ab	0.08516248
8	0xbc20373e	-0.009778796
9	0x3d582dff	0.05277824
10	0xbc833233	-0.016015148
11	0x3ce2f713	0.027705705
12	0x3d80ee03	0.06295397
13	0xbd6d2581	-0.057897095
14	0x3ccc8242	0.024964456
15	0x3d2a4894	0.041573122
16	0x3cea6575	0.028612832
17	0xbd3e4b70	-0.04645866
18	0x3d4885d5	0.048955757
19	0x3c6d2e0d	0.014476311
20	0x3d277df3	0.0408916
21	0xbd49a00e	-0.049224906
22	0xbd288509	-0.041142497
23	0xbd93f8bc	-0.07225177
24	0xbd31bbad	-0.043391872
25	0x3d96d55f	0.07364916
26	0xbd9ca809	-0.07649238
27	0xbca4b6a7	-0.020106627
28	0xbdf86fe6	-0.12130718
29	0xbcbcb096	-0.023033421
30	0x3d672c45	0.056438703
31	0xbda1c0c7	-0.078980975
32	0x3d3679d4	0.044549778
33	0xbd7f5b73	-0.062343072
34	0xbd2e3f40	-0.04254079
35	0x3c2caad6	0.010538777
36	0xbe0a0679	-0.13479032
37	0xbc5ac5dd	-0.013352838
38	0x3d514e0b	0.05109982
39	0xbd8e3fe0	-0.06945777
40	0x3c88c842	0.016697053
41	0x3d95a03a	0.073059514
42	0xbccec57a	-0.025240649
43	0x3a3e5af8	0.000726148
44	0x3d07aa1b	0.03312121
45	0x3d18a78b	0.037269156
46	0xbd9aaa55	-0.075520195
47	0xbcc0211a	-0.023453284
48	0x3d42a1b7	0.047517505
49	0x3c8d432a	0.01724394
50	0x3cab5f67	0.020919515
51	0x3d982869	0.074295826
52	0x3d0bf2a8	0.034166962
53	0xbd5fce00	-0.054639816
54	0x3cf63c1a	0.030057956
55	0x3c74ef9f	0.014949708
56	0x3d10e5ef	0.03537553
57	0x3d01bbc0	0.031673193
58	0xbd96bd2f	-0.07360303
59	0xbd0f5343	-0.034991514
60	0x3d9c2e9a	0.07626076
61	0x3d4bcf79	0.04975841
62	0xbd75b56e	-0.059987478
63	0xbd8ea822	-0.069656625
64	0x3db4c747	0.08827072
65	0x3d9f25a1	0.07770849
66	0x3d3290b8	0.043595046
67	0xbc9b5ef4	-0.018966176
68	0xbd23a0ce	-0.039948277
69	0xbd2a253f	-0.041539427
70	0xbd8c6706	-0.06855588
71	0xbe06a746	-0.13149747
72	0x3d42972d	0.047507454
73	0xbc399cba	-0.01132887
74	0x3db9070b	0.090345465
75	0x3da478b5	0.080308355
76	0xbd898444	-0.06714681
77	0x3b83b7b2	0.004019701
78	0x3d8e9c8d	0.069634534
79	0xbc93f8a3	-0.018062895
80	0xbd446a1e	-0.047952764
81	0xbd380e26	-0.044935368
82	0x3dbc0317	0.09180277
83	0x3ce6bb20	0.0281654
84	0xbd597827	-0.0530931
85	0xbc61f41c	-0.01379111
86	0xbcd5ea01	-0.026112558
87	0x3cfcc95d	0.030857736
88	0xbcd64dd4	-0.026160158
89	0xbd975d40	-0.07390833
90	0x3d1bf3b3	0.038074207
91	0xbd94e680	-0.07270527
92	0x3c096ef7	0.0083882725
93	0x3c8983d4	0.016786493
94	0x3d1177e9	0.035514746
95	0xbc98996e	-0.018627848
96	0xba523cc1	-0.00080199173
97	0xbcbf8bab	-0.023382029
98	0xbe1db1a4	-0.15399796
99	0x3d31897a	0.043344
100	0x3d1c2fb7	0.038131442
101	0x3c5dcc49	0.013537475
102	0x3c91f6d3	0.01781789
103	0x3cbd16b2	0.023082111
104	0x3d2cd8b6	0.04219886
105	0xbd50d326	-0.050982617
106	0x3bda6f9d	0.0066661374
107	0x3d353407	0.04423907
108	0xbdafe1d9	-0.08587999
109	0x3d015669	0.031576548
110	0xbcdc7968	-0.02691336
111	0x3d2f17e7	0.042747404
112	0xbc3fef71	-0.011714802
113	0x3c6febb1	0.014643596
114	0xbcdf9123	-0.027290886
115	0xbd6be616	-0.057592474
116	0x3d084ca0	0.0332762
117	0x3c902376	0.017595034
118	0xbbc0f89a	-0.0058890106
119	0xbd93b54e	-0.072123155
120	0x3d19644f	0.037449177
121	0x3d81b26b	0.06332859
122	0x3ca1043a	0.019655336
123	0xbd8245da	-0.063609794
124	0x3b9d7921	0.0048056995
125	0xbd734c3d	-0.05939888
126	0xbd17c573	-0.037053537
127	0xbcfc1cc4	-0.030775435
128	0xbd591b39	-0.053004477
129	0xbc9305ab	-0.017947039
130	0x3d9d35fc	0.07676312
131	0xbd478e77	-0.04871985
132	0x3ca60a33	0.020268535
133	0xbd595970	-0.05306381
134	0x3da75438	0.0817036
135	0x3d909415	0.070594944
136	0xbab29aef	-0.0013626496
137	0x3d13c594	0.036077097
138	0x3d7a61d4	0.061128452
139	0xbd3061f0	-0.04306215
140	0x3d283dd7	0.0410746
141	0xbc99012a	-0.018677313
142	0x3cf2ab75	0.029622773
143	0x3c015c60	0.007895559
144	0xbcfe6cfa	-0.031057823
145	0x3d671be8	0.056423098
146	0x3c4717e8	0.012151696
147	0x3b67f4f4	0.0035393806
148	0x3d40eb7d	0.04709958
149	0xbdafc933	-0.085832976
150	0xbc315595	-0.010823627
151	0x3cc355b3	0.023844576
152	0xbcfee8d9	-0.03111689
153	0xbad70da0	-0.0016407259
154	0x3d6e9837	0.058250632
155	0xbd89fa15	-0.067371525
156	0xbd476cb8	-0.048687667
157	0x3d74be6f	0.059751924
158	0x3d43814d	0.047730733
159	0x3c4b65a7	0.0124143725
160	0x3d29d906	0.041466735
161	0xbd042277	-0.03225943
162	0xbc140d2c	-0.009036344
163	0x3d61faa3	0.055170666
164	0xbdb2501d	-0.08706687
165	0x3d6433f9	0.055713627
166	0x3ba7697c	0.0051090103
167	0xbd4039b9	-0.04693005
168	0x3cfde085	0.030990848
169	0xbd09dd54	-0.03365834
170	0x3c73205f	0.014839261
171	0xbd2e0f43	-0.042495023
172	0x3cc37154	0.02385775
173	0xbda4b415	-0.080421604
174	0xbce21202	-0.027596477
175	0xbc1e171e	-0.009649066
176	0xbd74c6a1	-0.05975974
177	0x3db7a5b4	0.08967152
178	0x3d2c923e	0.042131655
179	0x3c38ce3e	0.011279641
180	0x3d98d410	0.07462323
181	0x3d764202	0.060121544
182	0xbdaca25e	-0.084294066
183	0xbd3738f7	-0.04473206
184	0xbd85b224	-0.06528118
185	0x3d6e3b41	0.058161978
186	0xbd4051b0	-0.046952903
187	0x3ac7c4a2	0.0015241096
188	0x3ca6b683	0.0203507
189	0xbd3b45d9	-0.04572091
190	0xbcfcc59f	-0.030855952
191	0xbc034ae5	-0.008013462
192	0x3d99de6e	0.07513128
193	0x3d445d31	0.047940437
194	0xbd71b90d	-0.05901437
195	0xbd69977d	-0.057029236
196	0x3d8139fb	0.06309887
197	0xbd63266e	-0.05545657
198	0x3d9089c1	0.070575245
199	0xbdaaeb3f	-0.08345651
200	0x3d593acf	0.0530346
201	0xbcd5791d	-0.026058728
202	0xbc6b20fa	-0.014351124
203	0x3d03b38f	0.032153662
204	0x3c06ea06	0.0082345065
205	0xbd60fdd8	-0.054929584
206	0x3cb5e44a	0.022203583
207	0x3aa88c02	0.0012859108
208	0xbbb9dc71	-0.0056720306
209	0xbcf62b92	-0.030050073
210	0xbda9f045	-0.08297781
211	0xbda8e88f	-0.08247482
212	0x3d5afcfb	0.053463917
213	0xbd979572	-0.07401551
214	0xbc1119a3	-0.00885621
215	0x3c95c6a3	0.018283194
216	0x3d5102c7	0.05102804
217	0x3d3364bd	0.043797243
218	0x3d4be244	0.04977633
219	0xbc35137d	-0.01105201
220	0x3da9c0c5	0.08288721
221	0xbc83e13e	-0.016098615
222	0x3d938cdc	0.07204601
223	0x3c9abc55	0.018888632
224	0xbd35237f	-0.044223305
225	0xbc54ee62	-0.012996288
226	0xbdb450b4	-0.088044554
227	0xbc70df12	-0.014701622
228	0x3d69a4a3	0.057041775
229	0xbce4ee47	-0.02794565
230	0xbdb528d6	-0.088456795
231	0x3c7c2c23	0.015391382
232	0xbd8bc269	-0.0682419
233	0x3d0ef83a	0.034904696
234	0xbd24bbe9	-0.040218268
235	0x3da123fd	0.07868192
236	0xbdb75051	-0.08950866
237	0xbd446b78	-0.047954053
238	0xbd94ef21	-0.07272173
239	0xbd241483	-0.040058624
240	0xbda6abb6	-0.0813822
241	0x3c80e48a	0.015733976
242	0xbd65e38b	-0.056125205
243	0x3daaf91d	0.08348296
244	0x3c833512	0.016016517
245	0xbd19d95f	-0.037560817
246	0xbc74a8b0	-0.014932796
247	0xbd7abcb5	-0.06121512
248	0xbca1f401	-0.01976967
249	0x3d59f88c	0.05321555
250	0x3d3aca98	0.045603365
251	0x3cf54221	0.02993876
252	0xbd423764	-0.047416106
253	0x3c475910	0.01216723
254	0x3d85b6af	0.06528985
255	0x3c028c23	0.0079679815

fc.2.bias f4 [64]
0	0xbbeab42e	-0.0071625924
1	0x42ba7ebc	93.24753
2	0xbe062b1f	-0.13102387
3	0xbdd8d8e6	-0.10588245
4	0x430e7569	142.45863
5	0xbe3995b6	-0.18123516
6	0x423d8b20	47.385864
7	0xc096cb32	-4.712304
8	0xba990708	-0.0011675069
9	0xbfcf1b2d	-1.6180168
10	0xbe098287	-0.13428698
11	0xbd980144	-0.074221164
12	0xc0b4fe06	-5.6560087
13	0xbc9b3684	-0.018946894
14	0xbe124110	-0.14282632
15	0xbfccd801	-1.6003419
16	0x42fefffc	127.49997
17	0xbc1185ad	-0.008881968
18	0x42be6157	95.19012
19	0xbc990a30	-0.018681616
20	0xbfee2391	-1.8604604
21	0xbe3178f1	-0.17331292
22	0xbdbe94f5	-0.09305755
23	0x42ec3b06	118.11528
24	0xbf15e5aa	-0.58553565
25	0xbd949b6f	-0.07256209
26	0xbb9e20d7	-0.004825692
27	0x42eee4b9	119.446724
28	0xbd2fa5df	-0.042882796
29	0xbe14eca6	-0.14543399
30	0x42bd4562	94.63551
31	0xbec036ca	-0.375418
32	0x42be5655	95.16862
33	0xbdefe2fe	-0.11713217
34	0xbb3bd227	-0.0028659196
35	0xbd38bf13	-0.045104098
36	0xbdac1418	-0.0840227
37	0xbb5e7a23	-0.003394731
38	0xbd0df74b	-0.034659665
39	0xbb8ae801	-0.004239083
40	0xbdd266c4	-0.10273507
41	0x42bdc69f	94.88793
42	0xbdaf9a08	-0.08574301
43	0xbe5c0f7b	-0.2149028
44	0xbd7d4da7	-0.061841633
45	0xbcfd2dcd	-0.030905629
46	0xbdd0edf9	-0.1020164
47	0xbddade72	-0.10686959
48	0xbdca4151	-0.09875739
49	0xbe66b791	-0.22530963
50	0xbd009b5c	-0.031398162
51	0xbd3c90e2	-0.04603661
52	0xbb01beaf	-0.0019797494
53	0xbf9a4c9d	-1.205463
54	0xbe6574b1	-0.22407795
55	0xbea35a75	-0.3190495
56	0xbbe983a8	-0.0071262904
57	0x42bc2d7d	94.088844
58	0x42c008b8	96.01703
59	0xbda8c560	-0.08240771
60	0xbe0e32a3	-0.13886504
61	0x42f464a5	122.19657
62	0xbc21126f	-0.009831055
63	0xbe0bc734	-0.13650209

fc.4.weight f4 [2, 64]
0	0x3d9743b7	0.073859625
1	0x42356030	45.343933
2	0x3d8c1a03	0.06840899
3	0x3d0866af	0.03330105
4	0x4283b4c2	65.85304
5	0xbb0fe6ef	-0.0021957716
6	0xc11da239	-9.852105
7	0x3d2317bc	0.039817557
8	0xbc9350dc	-0.017982893
9	0xbcb74b8b	-0.022374889
10	0xbdc03b7d	-0.093863465
11	0xbd30a4f4	-0.04312606
12	0xbc0435e4	-0.008069489
13	0xbae265de	-0.001727279
14	0x3ccb5bc0	0.024824023
15	0x3b01fbef	0.0019834002
16	0x42bac084	93.37601
17	0x3b81e9a8	0.0039646216
18	0x428ce9e9	70.456856
19	0x3dcb9b09	0.0994168
20	0xbd42b8dc	-0.047539577
21	0xbcda65d7	-0.02665989
22	0xbd67a3e2	-0.056552775
23	0x42988334	76.256256
24	0xbd36b45c	-0.044605598
25	0xbbfaaa0b	-0.007649665
26	0x3d23a0ea	0.03994838
27	0x424ed558	51.708344
28	0xbd5d82b0	-0.05407971
29	0xbc928001	-0.017883303
30	0x424e4bde	51.57409
31	0xbcb547a1	-0.022128882
32	0x426fca56	59.947594
33	0xbd7d5604	-0.06184961
34	0xbd6f794f	-0.0584653
35	0x3da29884	0.07939246
36	0xbd882771	-0.06648148
37	0xbfaad7d8	-1.334712
38	0x3d90aa27	0.07063704
39	0xc0189f8d	-2.3847382
40	0xbdde107f	-0.1084299
41	0x426d9fe7	59.406155
42	0xbcb16df2	-0.021658871
43	0x3b651c2f	0.0034959426
44	0x3c192eab	0.009349505
45	0x3db2ddde	0.08733724
46	0x3dc6ac1b	0.09700795
47	0x3bfe4f9d	0.0077609555
48	0x3c2e8253	0.010651189
49	0x3a483870	0.00076378044
50	0xbd7d354f	-0.061818417
51	0xbd98906d	-0.07449422
52	0xbc0483ae	-0.0080880355
53	0xbd1b0a16	-0.037851416
54	0x3daf21ea	0.085513905
55	0xbbe4052b	-0.006958624
56	0xbc374043	-0.011184755
57	0x4241906b	48.391033
58	0x4231d095	44.453693
59	0xbc9e01d2	-0.019287977
60	0x3d81aea1	0.06332136
61	0x4241bde8	48.435455
62	0xbd4fa572	-0.05069489
63	0xbd7d581d	-0.06185161
64	0x3cbeb7c5	0.023280988
65	0x42564f47	53.57742
66	0x3d0139f6	0.031549416
67	0x3cf80c7e	0.030279394
68	0x428ac0a2	69.376236
69	0x3a66eef3	0.000880941
70	0xc11da851	-9.853593
71	0x3d59bdfd	0.053159703
72	0x3c3d135f	0.011540263
73	0x3bd9fc25	0.0066523724
74	0x3dd981d8	0.10620469
75	0x3d37b804	0.044853225
76	0xbca749ac	-0.020420872
77	0xbd974af0	-0.0738734
78	0x3c95d270	0.018288821
79	0x3a5e686d	0.00084841886
80	0x42b41892	90.04799
81	0xbbf57155	-0.007490317
82	0x424c9c7d	51.15282
83	0x3bb261a0	0.0054437667
84	0xbce38b66	-0.027776431
85	0xbda2a015	-0.079406895
86	0xbd4142f3	-0.04718299
87	0x42832ba8	65.585266
88	0xbce8cde0	-0.028418481
89	0x3c902339	0.01759492
90	0x3d8ac94f	0.06776678
91	0x426ab17a	58.673317
92	0x39f076b6	0.00045864814
93	0xbacaeaab	-0.0015481313
94	0x4258dd90	54.21637
95	0xbca0defb	-0.019637575
96	0x42445524	49.083145
97	0x3c74d32d	0.014942926
98	0xbc16f10f	-0.009212746
99	0xbd4279b7	-0.047479358
100	0x3dc99ea9	0.09844715
101	0xc0a28a0a	-5.0793505
102	0x3d83811a	0.064211085
103	0xc0e7ce8c	-7.2439632
104	0x3c95ae7e	0.01827168
105	0x4252fb5e	52.745476
106	0xbd20b9e4	-0.03923978
107	0x3ccbd450	0.024881512
108	0x3d0b9de5	0.034086127
109	0x3a610ec2	0.0008585268
110	0xbd8ed27a	-0.06973739
111	0xbc991700	-0.018687725
112	0x3cf967df	0.030445037
113	0xbbc1937e	-0.005907475
114	0xbce2b2d5	-0.027673164
115	0x3cecace0	0.028891027
116	0xbb81539b	-0.003946734
117	0xbbe9150a	-0.0071131038
118	0xbd38b9c1	-0.045099024
119	0xbcb90cf6	-0.022589188
120	0x3d141a02	0.036157615
121	0x42413a04	48.306656
122	0x42636288	56.846222
123	0x3c613d04	0.013747457
124	0xbc808428	-0.015688017
125	0x42780bf3	62.01167
126	0xbd9945a1	-0.07483984
127	0x3bece588	0.0072295107

fc.4.bias f4 [2]
0	0x425b59cd	54.837696
1	0x40f71b1d	7.7220597
